Tizen.native/LowLightImageEnhancementPipeline/res/lite-model_zero-dce_1.tflite (tflite, 335036 bytes, 14 tensors)

zero_dce/17068 f4 [32]
000000 5e d7 34 3d 1a db 0a 3d 3d 29 61 bb 59 03 12 bb
       0.044150703 0.033900358 -0.0034356855 -0.0022279827
000010 91 f6 23 ba 04 6f 1f 3d 74 15 b9 b7 ca 3e 0b bc
       -0.0006254698 0.038924232 -2.2063708e-05 -0.008498857
000020 a7 56 62 bb e8 e5 9d 3c a3 4f 8f bb 12 8d 4b bb
       -0.0034536512 0.019274667 -0.004373507 -0.0031059426
000030 22 df 07 3c 66 05 7d 3b 5e d5 80 3b d0 94 06 bb
       0.008292945 0.0038607954 0.0039316854 -0.0020535477
000040 66 3e 0e 3d 8b 3b 37 bb af f3 b0 3c b8 02 87 3c
       0.034727477 -0.0027959074 0.021600572 0.016480789
000050 2b f3 03 3b 19 31 3c 3d b2 9a 5f 3c 87 7a 86 3d
       0.0020133953 0.04594526 0.013647722 0.06566339
000060 81 53 d6 ba 12 ad 85 3c 6d c6 14 bb 4b 53 f4 3b
       -0.001635179 0.016317878 -0.0022701279 0.0074562184
000070 79 62 c2 3a f7 6b 38 bc 44 ab aa 3b 33 30 81 bb
       0.0014830373 -0.01125621 0.0052084047 -0.0039425134

zero_dce/17064 f4 [32]
000000 c2 b0 47 bb 9e f0 29 ba 58 86 9e 3c 59 de fd 3c
       -0.0030470346 -0.0006482693 0.01935117 0.030989813
000010 ff 9b f9 3b 72 2d b7 3b e7 03 7a bb 00 06 00 bb
       0.007617473 0.0055901343 -0.0038149299 -0.0019534826
000020 37 cb 25 3c 61 2f f1 bb 47 88 d4 3a 06 c2 c6 3c
       0.010119251 -0.0073603843 0.001621493 0.02426244
000030 d6 b8 ac bb 60 cb 88 3c 21 84 b0 3c c5 15 f8 3b
       -0.0052710576 0.01669854 0.021547379 0.0075709545
000040 83 f0 97 3c ee 5b 0b 3d 1c 81 a7 3c 52 be ea 3c
       0.018547302 0.034023218 0.020447306 0.028655205
000050 2f da 9b 3a fc 4e 9a 3c 69 64 68 3c df 01 14 3c
       0.0011890585 0.01883649 0.014184096 0.009033649
000060 5c 70 b7 3b 70 e4 3f 3d 75 c2 32 3a 17 75 54 3d
       0.005598111 0.046848714 0.00068191375 0.051869478
000070 30 6d 23 bb 54 de 8b bb 30 7f d9 3c c8 9a 82 3c
       -0.0024936907 -0.004268447 0.026549906 0.015942946

zero_dce/17060 f4 [32]
000000 82 5d 8d 3c 18 95 80 3c a8 07 73 3d da a5 89 3c
       0.017256502 0.015696093 0.059333473 0.016802717
000010 a2 7d ec 3a b7 3f eb 3c cd 17 fe 38 e3 08 96 3c
       0.0018042813 0.028716905 0.00012116097 0.018314784
000020 fc a5 4a 3a 23 4a 6e 3b 26 bf ff 3b 58 89 18 bc
       0.0007730422 0.0036360107 0.007804769 -0.009310089
000030 5d a0 93 3b e6 65 58 bb b2 d0 7a 3b 74 63 3f 3c
       0.004505201 -0.003301972 0.0038271365 0.011681426
000040 85 89 9d 3c a3 a9 5c bb f9 ce 75 bb b6 a1 8e 3c
       0.019230613 -0.0033670447 -0.0037507399 0.017411094
000050 57 e2 fe 3a 60 6f f3 3b 3a dd 87 3c e8 17 5d 3c
       0.0019446117 0.0074290484 0.016584981 0.013494469
000060 6c a5 98 3c 34 70 d8 3b 76 83 85 bc f4 f7 16 3c
       0.018633567 0.0066051725 -0.016298037 0.00921439
000070 40 d4 2d 3d 1a 28 77 3c 99 f7 db 3c cd 6c 0f bc
       0.042438745 0.015085245 0.026851462 -0.0087539675

zero_dce/17056 f4 [32]
000000 63 db f9 3b d3 c0 32 bb 4b 4b f4 b9 07 9e 84 3b
       0.00762503 -0.0027275577 -0.00046595404 0.0040471586
000010 25 6c b3 3b 01 97 0a 3d 63 ea 65 3a 91 fc f1 bb
       0.0054755383 0.033835415 0.0008770583 -0.0073848446
000020 04 4e 08 bb 60 4a e1 3c 18 2d ce ba 50 d0 34 3c
       -0.0020798454 0.027501285 -0.0015729992 0.011035994
000030 20 c1 cc 3c 69 d4 9b 3c 9a 7c 8a 3c c1 ba e6 3c
       0.024994433 0.019022183 0.016905118 0.028165223
000040 55 31 a6 3c ca 31 28 3d 7f c3 bf 3b ce 10 4f ba
       0.020287195 0.041063108 0.0058521624 -0.00078989274
000050 39 37 e5 3c 6c e4 4b bb 30 c5 b5 3c 7e 49 69 3b
       0.027980434 -0.0031111492 0.022188753 0.0035596783
000060 ab 92 bc 3c 1b f1 a3 ba 57 7b 65 3c 7e 36 4c 3d
       0.023019155 -0.0012507768 0.014006457 0.049856655
000070 2e 04 11 bc b8 ed ff 3c 80 b5 fb 3c 65 fe 2a 3c
       -0.008851094 0.031241283 0.030726194 0.010436629

zero_dce/17052 f4 [32]
000000 82 17 05 3d 8e 6e e8 3c 62 85 8e bb b0 c1 8a ba
       0.032493122 0.02837303 -0.0043493966 -0.0010586288
000010 96 52 4b bc ce ec 00 3d c8 ba 8e 3b 0f 48 67 bc
       -0.012409827 0.031475835 0.004355762 -0.014116301
000020 c9 56 85 bc 04 4d f9 bb 16 66 69 b9 58 52 bf 3c
       -0.016276734 -0.007608058 -0.00022258642 0.023354694
000030 e0 57 96 3c 48 98 55 b5 1e 81 f9 3c 5a 3b 44 bc
       0.018352449 -7.957028e-07 0.030457076 -0.011977041
000040 b4 0f a6 39 d8 7f df bb 1e 97 d6 3b 23 1d 2b 3d
       0.00031673687 -0.00682066 0.0065487763 0.041775834
000050 05 ba 2c bc b9 14 27 bc 4e 53 b7 bb 28 a1 d7 3c
       -0.010542397 -0.010197812 -0.0055946475 0.026321962
000060 0c a5 01 3d 1b b6 c9 b8 aa 6e bc 3c 63 b7 14 3c
       0.03165154 -9.618347e-05 0.023001987 0.009076926
000070 99 7f 1a ba f3 58 35 3d 90 22 f2 bb 34 9d ed b7
       -0.00058936473 0.04427428 -0.007389374 -2.8325805e-05

zero_dce/17048 f4 [32]
000000 39 f6 48 bc 0a 8c f3 bc f3 ac 68 bc 6c 46 5e bd
       -0.012265735 -0.029729862 -0.014201391 -0.05426638
000010 f4 0b 80 bc 68 0a 33 bc af 51 89 bc 0f 2d 94 bc
       -0.0156307 -0.010927774 -0.016762583 -0.018087892
000020 36 d7 8b bc cf a5 7c bc 34 a5 19 bc 80 36 75 bc
       -0.017070394 -0.015420391 -0.009377766 -0.014966607
000030 83 fb 82 bd ec e6 e7 bc 31 63 fa bc c5 e7 ae bc
       -0.06395628 -0.028308354 -0.030564876 -0.02135075
000040 c5 17 46 bd fc 49 72 bb 75 f5 6b bc 6c 58 43 bc
       -0.048362512 -0.0036970368 -0.014401783 -0.011922937
000050 8a 90 84 bc 84 69 64 bc af 0f 82 bd 11 f4 39 bc
       -0.016182203 -0.0139411725 -0.06350648 -0.011349694
000060 9c 01 8f bc c8 0e 85 bc 6a ff 14 bd b5 9d b1 bc
       -0.017456822 -0.0162424 -0.036376394 -0.021681646
000070 87 b6 4c bd ed a2 4c bc ce 97 0e bd 4b 45 5b bc
       -0.04997876 -0.012490016 -0.03481274 -0.01338322

model/conv2d/Conv2D;zero_dce/StatefulPartitionedCall/StatefulPartitionedCall/model/conv2d/Conv2D f4 [32, 3, 3, 3]
000000 86 d2 83 3d da 73 cc bd d6 f0 ce bc 81 aa 8e 3c
       0.064366385 -0.099830344 -0.025261324 0.017415287
000010 60 8e 12 be 92 be 2f bd 64 1e 8a bd 9c 1f 93 3d
       -0.14312124 -0.04290635 -0.06744078 0.071837634
000020 1c c5 ca bb 6f b7 91 3c a0 99 50 bd 75 17 ed bd
       -0.006188048 0.017787663 -0.05092776 -0.1157674
000030 80 9c 21 bd 57 77 0f 3e 16 0d d0 3d 12 4c b6 bd
       -0.03945589 0.14010368 0.10158746 -0.08901228
000040 61 51 a7 3d 35 68 a4 bd ff 34 95 bd e1 16 96 3d
       0.08169819 -0.080276884 -0.07285499 0.073285826
000050 ce f2 bd bd ed a3 e9 3c de 01 38 bd 64 8f 93 bc
       -0.09274827 0.028520549 -0.044923656 -0.01801271
000060 cb f7 d6 bd dc c6 ff bd da d2 b8 3d 27 b1 a7 bd
       -0.104964815 -0.12489101 0.09024592 -0.08188086
000070 b6 4b ba bd 1f f4 a9 bc 32 ed d1 3c 86 a8 a0 3d
       -0.09096472 -0.020746289 0.025625799 0.07844643
000080 79 93 12 bc 29 97 c7 3c e8 d6 3a bd ce 9f 0a 3c
       -0.008946293 0.024364071 -0.045615107 0.008460952
000090 52 20 be 3d 1f 01 d2 3d b8 8b c2 bd c8 99 f1 3c
       0.09283508 0.1025412 -0.094993055 0.029492274
0000a0 ea a2 06 3d f4 85 96 bd 1a b5 14 bd e5 7e 65 3d
       0.03287021 -0.07349768 -0.036305524 0.05602922
0000b0 8e b1 83 3c b5 47 27 3b 15 a4 bb bc 2f a2 a5 3d
       0.016075876 0.0025524918 -0.022905389 0.08087575
0000c0 f8 d8 81 bc 51 b8 4b bd 3b 0a a7 bc 4f 54 f5 3c
       -0.01585053 -0.049736325 -0.02039062 0.029947428
0000d0 ea 98 bf bc 70 fb 17 3c 28 25 b0 3d 22 2f 88 bc
       -0.023388345 0.009276256 0.08600837 -0.016624037
0000e0 e2 1a 4a 3a fc 8b 6f bd 1b 56 91 bd e8 d6 d5 3d
       0.00077096943 -0.05848311 -0.070965014 0.10441381
0000f0 4b 55 5f bd c2 b3 c5 bd db c7 c0 bd d9 ae c0 3c
       -0.0545247 -0.09653427 -0.094131194 0.023520874
000100 ef 9f 80 bd 99 68 3a 3c dc 5d ae 3b 02 17 a4 bd
       -0.06280505 0.011377477 0.0053212475 -0.08012201
000110 e2 9a ee bd 20 e8 c3 3d 6f 4f f3 3c 76 59 7b bd
       -0.11650635 0.09565759 0.029700963 -0.061364613
000120 3d e2 e0 bc 08 e0 bd 3d ce 94 e7 bd 43 eb 36 bd
       -0.027451629 0.09271246 -0.11307679 -0.044657957
000130 44 96 58 3c f3 34 d5 bd 93 ff 8f bc e8 1d a7 3d
       0.01321942 -0.1041049 -0.017577922 0.08160001
000140 04 ae e8 3c 83 a9 b6 3d 29 f1 a4 bc 24 f9 c9 bc
       0.02840329 0.089190505 -0.020134525 -0.024654932
000150 57 f1 c5 bd af 0d ea 3d 1f ac 9d bd fe 67 f7 bc
       -0.096651725 0.11428391 -0.07698845 -0.030200955
000160 10 e7 5e 3d 34 de 71 bd 33 9e 8b bd 6b 9e 1e bd
       0.054419577 -0.0590498 -0.068172835 -0.038725298
000170 a6 28 c4 bd 31 ad 8c bd db e2 8a bd 3a 14 94 bd
       -0.095780656 -0.06868971 -0.067815505 -0.072304204
000180 a1 9f a5 3d d1 65 c8 3d 25 68 16 bd a9 b0 9b bc
       0.080870874 0.09785045 -0.036720414 -0.019005137
000190 aa 7c 90 3d b5 ee ba 3c e3 9c 9c 3d 8d a7 96 3d
       0.07055028 0.022818903 0.07647111 0.073561765
0001a0 eb 94 62 3d 6c 22 1d bc d2 e2 60 3d 5f d0 4a 3d
       0.0553178 -0.009590726 0.054903813 0.049515124
0001b0 72 5d 04 3d 5d eb 5b 3d 3d f5 04 be 5a 02 e9 bc
       0.03231568 0.053691257 -0.12984176 -0.028443504
0001c0 20 b0 0f be 22 f7 d5 bd ba ba c0 bc 0b 29 c2 bb
       -0.1403203 -0.104475275 -0.023526538 -0.005925303
0001d0 15 a1 32 3d 65 e4 df 3d 0f d2 ee 3a 22 dd dc bd
       0.04361065 0.10932235 0.0018220561 -0.10784365
0001e0 f6 da 6b 3d ef b9 4a 3d 9a bd ab bd 20 d2 c6 bc
       0.057581864 0.049493726 -0.08385773 -0.024270117
0001f0 75 e2 0b 3c 59 e3 6c bd 75 55 00 be 4b e7 8f bd
       0.008537878 -0.057834003 -0.125326 -0.070265375
000200 47 bf 7b 3a 1e 8f af 3d 26 b5 ec bd 04 7c 63 bd
       0.00096033927 0.08572219 -0.11557989 -0.055538192
000210 6f e1 15 bd 28 99 81 bd 57 ef f8 3d ea e5 6e bd
       -0.036591943 -0.0632804 0.121550255 -0.058324732
000220 8f bb c1 3d bc 93 c9 ba bd 69 ff bd ec 1e 90 bd
       0.09459602 -0.0015379111 -0.1247134 -0.07037148
000230 cd 33 dd bb 8c 35 ef 3d fa 42 87 bb dc 4f 12 be
       -0.00675056 0.11680135 -0.0041278573 -0.14288276
000240 82 b2 31 3d 2b 7a 02 bd c6 ad 25 3c 57 1d 63 3d
       0.04338313 -0.03185479 0.010112232 0.055447903
000250 9e 4d 8b 3c ff 66 48 bd 54 db cd bd 38 22 d3 3d
       0.017004784 -0.04892635 -0.10051599 0.10309261
000260 c0 4f a7 3d f9 d2 06 be 39 de 85 bd 3b b7 44 bd
       0.08169508 -0.13166417 -0.06536526 -0.048026305
000270 a8 2f 02 3d 4f 1c 81 bd 76 98 d6 3c a5 04 b9 bc
       0.03178373 -0.063042276 0.026195746 -0.022585222
000280 a8 38 87 bd 79 e2 0a be b6 c2 9a 3d 5a 46 23 bd
       -0.06602603 -0.13562955 0.075566694 -0.039862014
000290 64 95 08 be 1d 60 02 3d 5c a8 ac 3d 0e 7e 0d be
       -0.13338238 0.031829942 0.084305495 -0.13817617
0002a0 87 74 92 3d a3 67 a3 bd c9 85 23 bd 5e 0f ba 3c
       0.07151132 -0.079787515 -0.03992251 0.022712406
0002b0 f4 81 51 bd b3 0d b2 bc 26 10 ad bd c0 c5 ec bd
       -0.051149324 -0.021735048 -0.08450346 -0.11561155
0002c0 67 e0 10 be c2 dc 8c 3c 82 4b 85 3d 1a 26 8f 3d
       -0.14148103 0.01719511 0.065085426 0.06989689
0002d0 94 b4 c5 3d 93 f3 1d be fb 87 12 be 90 17 d5 bd
       0.09653583 -0.15424947 -0.14309685 -0.10404885
0002e0 58 3a 34 3d 85 de a1 3d 33 23 16 be cb 50 1a 3d
       0.044000953 0.0790377 -0.14661865 0.037674706
0002f0 50 39 fb 3c e9 ff 6b bd ae b5 a4 3d f1 01 c3 3d
       0.030666977 -0.0576171 0.08042465 0.09521855
000300 34 9e 8b bc cd f1 50 3d 6b 16 c2 bc 57 e2 0a be
       -0.01704321 0.05101185 -0.02369233 -0.13562904
000310 b3 97 c2 bd 0e cc 9d 3d 35 b5 01 be 5d 1b a3 3d
       -0.095015906 0.07704936 -0.12666781 0.079642035
000320 22 06 f2 bd 30 39 39 3d a6 25 99 bc 92 47 ae bd
       -0.11817576 0.045220554 -0.01869471 -0.08509745
000330 6d e8 fc bd c1 ec 0b be 3b 1d cc bc c6 8d cf 3d
       -0.12349019 -0.13664533 -0.024916282 0.10134463
000340 d6 c6 af bc 4c ce d6 3c 14 19 84 3b eb ef 03 bb
       -0.021457117 0.026221417 0.00403131 -0.0020132016
000350 10 4c 4d bd 75 14 b5 3c 1c 32 a1 bd aa 97 2d bc
       -0.050121367 0.022104481 -0.07870886 -0.010595242
000360 d0 43 f7 bd 3f 31 09 be 20 56 41 bd 90 9a 6d bd
       -0.12073481 -0.13397692 -0.047201276 -0.05800873
000370 d4 ff 15 be 50 f9 9f 3d 31 27 cf 3d 24 32 7b bd
       -0.14648372 0.078112245 0.10114897 -0.061327115
000380 a2 ae 01 bd 57 3e 00 bb 0f 61 e6 3c 2d 70 03 be
       -0.031660683 -0.0019568407 0.028122453 -0.1283576
000390 2e b9 5b 3d b3 ae 3e bc 4e 83 d7 bc 16 c4 2c bc
       0.053643398 -0.011638331 -0.026307728 -0.010544797
0003a0 c3 5f 91 3d 6f d1 71 bb 33 72 ef bd b8 fb 15 be
       0.07098343 -0.0036898514 -0.11691704 -0.14646804
0003b0 82 79 4a 3c 65 5d bc 3d 6e 42 b9 bd f1 de c2 3d
       0.012358071 0.09197501 -0.090458736 0.09515179
0003c0 2e f8 6a 3d ad b8 80 bd 2e d4 07 be 1f dc 85 3d
       0.05736559 -0.06285224 -0.13264534 0.065361254
0003d0 5e 8c fd bd 5f 25 55 3d f4 e4 06 be c7 db 49 bd
       -0.123802885 0.052037593 -0.13173276 -0.04928186
0003e0 7c ca 5c bd 4c 16 b1 bb e1 f2 f1 bd db 0c f6 bd
       -0.05390404 -0.0054042693 -0.118139036 -0.12014171
0003f0 7d 5d a8 3d b8 bf 54 3d 4f 4a c4 bd 3b 69 9d bd
       0.082209565 0.05194065 -0.09584486 -0.07686087

model/conv2d_1/Conv2D;zero_dce/StatefulPartitionedCall/StatefulPartitionedCall/model/conv2d_1/Conv2D f4 [32, 3, 3, 32]
000000 80 3d ab bd 3b 0b 54 3d 74 3c 1a bd 7b de a3 3d
       -0.083613396 0.051768523 -0.03765531 0.08001419
000010 a1 8e a0 bb c6 26 b5 bd 25 05 c4 3c 27 b6 fe bb
       -0.004899815 -0.08845286 0.023928234 -0.007773179
000020 3b c1 04 3d ba 7c c6 3d 9e da df 3c 7e 2c 97 bc
       0.03241084 0.096917585 0.027325924 -0.018453833
000030 c9 9d ea 3c ce 09 90 3d 5b 38 98 3c 4b b5 b8 3d
       0.028639691 0.0703312 0.01858156 0.09018954
000040 55 4b b7 3c 5b 53 f7 3d 5e bb 3c 3c 11 b0 26 3d
       0.022374788 0.12076446 0.011519281 0.040695254
000050 d9 5b 82 bd c8 9d c9 bd bf 52 24 3d 98 e7 a0 3b
       -0.06365175 -0.098445475 0.040117975 0.0049104206
000060 f4 6c 92 bb 5b 21 42 bc 41 50 8c bd 16 4a 55 3d
       -0.0044685546 -0.011848773 -0.06851245 0.052072607
000070 96 e6 6e 3c 3c 93 4c 3d ac 9e 52 bd df 2f a6 3c
       0.014581343 0.0499451 -0.051420853 0.020286499
000080 92 4a a9 bc f1 5e 83 3d 49 27 21 3d 13 82 66 bd
       -0.02066544 0.06414593 0.039344106 -0.056276392
000090 50 c7 24 bc ae d3 a2 bc d4 0b 83 bd 5d 26 3f 3d
       -0.010057285 -0.019876327 -0.063987404 0.046667445
0000a0 2c 85 8a bd d2 52 c6 3d 96 67 26 3d ce 9b e4 bc
       -0.06763682 0.096837655 0.04062613 -0.027906325
0000b0 36 58 06 3d f5 ec 4e bc 6b 1d 69 bc a2 a3 c7 bd
       0.03279897 -0.012629737 -0.014228205 -0.09748007
0000c0 f0 02 19 3d f7 2d 6f 3d 36 42 61 bd 02 93 41 3d
       0.037356317 0.058393445 -0.054994784 0.04725934
0000d0 46 6a 85 bd c5 b2 56 3d 36 59 7c bc b6 d8 71 3c
       -0.06514411 0.05241658 -0.015402129 0.014761141
0000e0 86 5e bd bd 18 0b 01 3d 16 1c 0c bd ab 8d d7 3c
       -0.092465445 0.03150472 -0.034206472 0.02631267
0000f0 1f 7d 61 bd a9 65 07 bd e4 e4 6e bd e7 85 06 3b
       -0.055050965 -0.033055935 -0.058323756 0.002052659
000100 7c e9 8f 3d 15 d3 5f bd 42 98 1b 3d 16 dc f5 3c
       0.070269555 -0.054644663 0.037987 0.030012172
000110 22 e3 35 bd b9 d8 1e 3d c1 70 5e bd 2e d1 0c bd
       -0.044406064 0.0387809 -0.05430675 -0.034379177
000120 95 8e 90 3d 52 cb 01 3d 0d 79 c1 bd 97 48 f0 3c
       0.07058445 0.031688042 -0.09446917 0.029331489
000130 73 03 b0 3b 75 ae c9 3d f7 74 af 3d b1 42 94 3d
       0.005371505 0.09847728 0.08567231 0.07239283
000140 84 b9 71 bc 8b bf b7 bd 80 c6 89 3d 3e 6f 99 3c
       -0.014753703 -0.08972081 0.06727314 0.018729802
000150 60 ea 77 bd c3 d9 fa 3b b1 53 c6 bd 5c 03 6c 3b
       -0.06052625 0.0076553538 -0.096839316 0.0036012745
000160 c5 fa 1c 3d 73 c3 9b 3b ac 9e 89 bd 6f 4a a6 bc
       0.03832509 0.004753524 -0.067197174 -0.020299165
000170 78 df cb bd 0c cd 95 bd 93 27 89 3d 5a 0e b4 bd
       -0.09954733 -0.073145 0.06697001 -0.087918
000180 00 f9 4e 3d a2 ff 9e 3d f2 a1 c4 3d 14 c3 a2 bd
       0.050530434 0.07763602 0.09601201 -0.079473644
000190 53 cc 3b 3d 05 6a a2 3d 28 47 7e bd b4 ab 5d bd
       0.045849156 0.07930378 -0.06207958 -0.054118827
0001a0 5c 77 13 bc 77 71 df bb a4 e8 79 bd 61 db bd 3d
       -0.009000625 -0.006818946 -0.06101288 0.09270359
0001b0 b9 4b 35 bd 34 ff a1 3d 77 fe 52 bd 87 80 bb bc
       -0.044261668 0.07910004 -0.051512208 -0.022888435
0001c0 d2 c6 a6 3d 1d 7c 97 bc 56 19 46 bd 92 ab cb bd
       0.08143391 -0.018491799 -0.048364006 -0.09944834
0001d0 40 0c af 3c a1 91 60 3d 2e 63 ba 3c 2e c8 a8 bd
       0.021368146 0.054826383 0.02275237 -0.08241306
0001e0 7f 68 48 bd 9b 9d 2e bd 24 ae 34 bd 14 a6 ab bc
       -0.04892778 -0.042630773 -0.044111386 -0.020953216
0001f0 30 b1 fb 3c a9 9b 88 3d d4 2b 64 bc ce 4f b1 bd
       0.030724138 0.06670315 -0.013926465 -0.086578
000200 65 9b 39 3d 9e bf 49 bd a4 c4 40 bd 6d ea c1 3d
       0.04531421 -0.049255006 -0.04706253 0.09468541
000210 eb a9 6b 3d b0 b9 84 bd 89 7e b8 bd e4 c7 9c 3d
       0.057535093 -0.064807296 -0.0900851 0.076553136
000220 68 c8 22 bd b7 12 f3 bc a6 46 8f bd cc 5d 31 3d
       -0.039741904 -0.02967201 -0.06995897 0.043302342
000230 62 85 6c bc d6 93 43 3d ae 85 8f bd 2a 46 86 3c
       -0.014436098 0.04774841 -0.07007919 0.016390879
000240 23 f5 04 bc c0 c6 d1 3d f8 09 93 bd 54 f2 1b bd
       -0.008115086 0.10242987 -0.07179636 -0.0380729
000250 44 38 a6 3c 99 bd 68 bd bf 44 c2 3d 14 41 92 bc
       0.020290501 -0.05682144 0.094857685 -0.017853297
000260 51 e5 00 ba e4 30 a6 3d d3 89 84 bc 06 3b 0d 3d
       -0.00049169833 0.08114794 -0.016179001 0.034480117
000270 31 bb 4b 3d 0d db 98 3d 3e 37 38 3d b3 33 92 3d
       0.049739067 0.074636556 0.044974558 0.07138767
000280 92 25 a8 3d ef 27 55 3c 69 31 bc bd e9 46 b9 3b
       0.08210291 0.013010009 -0.09189112 0.005654205
000290 3d 34 ca 3d 09 bb d9 bc 3b 66 2a 3d 71 d8 5f 3b
       0.09873245 -0.026578443 0.0416014 0.0034156109
0002a0 a4 f8 80 3d 2f 73 bc 3d b4 f1 37 3d 81 01 6e bd
       0.062974244 0.09201657 0.04490824 -0.058106903
0002b0 ed 70 2f bd fe 75 88 3d ea 6e 67 bd fc 57 d6 3d
       -0.042832304 0.0666313 -0.05650226 0.104660004
0002c0 60 bc df bd 69 9b 06 3e 01 b5 60 3d 65 e1 25 bd
       -0.109246016 0.13145222 0.05486012 -0.040498156
0002d0 a2 a8 4e 3d 7a b4 40 bc 51 18 a8 bd 6a ed 1c 3d
       0.05045379 -0.011761779 -0.08207763 0.038312353
0002e0 cf 4c 34 3d 81 9d c8 bc 57 a5 43 bd cd d4 ae bc
       0.044018563 -0.024489166 -0.047765102 -0.021341706
0002f0 44 7f 47 3d 44 fe cc bc 6d ed 84 bd ac a8 65 bd
       0.048705354 -0.025023587 -0.06490598 -0.05606906
000300 94 70 32 3d 88 fe 4f bd a6 72 40 3d fe 08 cc 39
       0.043564394 -0.05077985 0.046984337 0.00038916612
000310 ac ec 9a 3b 8f 3a 5e 3c 39 b6 90 bd 2a 1c 27 3d
       0.0047279205 0.013563766 -0.07066006 0.040798344
000320 50 cd 97 3d dd 95 ac bd 06 06 83 bd c9 41 c1 bd
       0.07412207 -0.08427022 -0.06397633 -0.09436376
000330 c8 ea 88 bd 5d c1 ad 3d a0 14 49 3d 60 d9 20 bd
       -0.06685406 0.08484147 0.049091935 -0.039269805
000340 c8 5e 90 3d 2b 55 8e bd 78 e5 2d 3d 34 ff f5 bc
       0.07049328 -0.06949838 0.042455167 -0.030028917
000350 cb 31 b3 3d 78 74 9f bd 74 2b 7d 3d 80 42 8f 3d
       0.08749732 -0.077858865 0.06180902 0.06995106
000360 47 60 91 3d 61 64 5c 3d 51 2f af 3d 5c bc 4f bd
       0.070984416 0.053806666 0.08553947 -0.050716743
000370 cf 8b 48 3d c1 bd 58 3d 41 b5 4f bd 10 54 17 bb
       0.048961457 0.05291534 -0.050709967 -0.0023090877
000380 60 98 c1 bd e9 42 be 3d 66 fa 87 bc e8 3e 05 bd
       -0.09452891 0.09290106 -0.016598891 -0.032530695
000390 6a d9 61 bb 9d 52 2e bd 5b 14 71 3d 79 63 a5 bd
       -0.0034461864 -0.042559255 0.058857303 -0.080756135
0003a0 d7 52 40 bd 67 62 b9 3d 82 4d bf bd 4a 96 96 bc
       -0.046954002 0.09051972 -0.09340955 -0.01838221
0003b0 de 65 b4 3d e4 5d 83 bd 47 a3 81 3d 81 6d d1 bd
       0.08808492 -0.064143926 0.06329971 -0.10225964
0003c0 fd 0c 48 bd 75 77 ba bd c1 04 ea 3c f4 5a ac 3c
       -0.04884051 -0.09104816 0.02856672 0.021039464
0003d0 00 b1 2e bd 2e 96 15 bd fc b1 aa bb da a7 af 3d
       -0.04264927 -0.036520176 -0.0052092057 0.08576937
0003e0 c3 78 a8 bd a2 36 e5 bc 15 fa 45 3d f9 6d d1 3d
       -0.082261585 -0.027980153 0.0483342 0.10226054
0003f0 6b 91 b4 3d 3c 12 6f 3d 8c 30 dc bd c9 a7 23 3b
       0.08816799 0.058367 -0.10751447 0.0024971834

model/conv2d_2/Conv2D;zero_dce/StatefulPartitionedCall/StatefulPartitionedCall/model/conv2d_2/Conv2D f4 [32, 3, 3, 32]
000000 e5 05 92 bd 96 7e 8c bc 2e 76 be bd 2b 66 7a bb
       -0.071300305 -0.017150205 -0.09299885 -0.003820787
000010 64 d0 24 3d a8 db e9 bd 15 6d 8f 3c 0c 00 49 3d
       0.0402378 -0.11418849 0.017508069 0.04907231
000020 54 b3 95 3d 0a 4d a4 3d e5 72 8f 3d e2 3c cf bc
       0.07309595 0.080225065 0.07004336 -0.025297586
000030 3d 44 8c bd 8f e9 29 bd 74 e5 d8 3b e0 02 d0 bd
       -0.06848953 -0.041482504 0.00661915 -0.10156798
000040 e1 d5 a7 bd b9 46 12 3c 6a e8 66 3d 17 f4 9f 3c
       -0.08195091 0.008927994 0.05637399 0.01952557
000050 ad 0b b7 3d e5 8f 0e 3c 7a e3 a3 3d f8 b7 ef 3c
       0.08937774 0.008701299 0.08002372 0.029262528
000060 d5 de 05 bd 69 d4 b4 bb 1b ae 2a 3b e5 4b ca bd
       -0.032683212 -0.0055184853 0.0026043716 -0.09877757
000070 89 7c d8 3c 7f cd 79 bd 6e 85 a6 bd b0 0e 42 3c
       0.02642657 -0.060986992 -0.081309184 0.011844322
000080 8f f6 b4 bc 08 01 3c 3d ad 0d 9a 3d e3 ef c1 bd
       -0.022090225 0.04589942 0.0752214 -0.09469583
000090 06 ce 94 3b 33 3f 83 3d 07 ff 44 3d 9d 25 95 3d
       0.0045411615 0.06408539 0.048094776 0.07282565
0000a0 f0 0f 60 3d db b3 4d bc c3 dc 73 bd 72 ac e8 bd
       0.0547027 -0.012555088 -0.059536707 -0.11361016
0000b0 2f 5a bb bd c8 51 85 3d 8b 8c 1b bd 0a 08 26 3d
       -0.091480605 0.06509739 -0.03797583 0.04053501
0000c0 9c d6 fa 3c c5 bd a8 3d 69 f4 e4 bd ac 69 90 3d
       0.030619912 0.08239321 -0.1117943 0.07051405
0000d0 70 f5 73 bd 05 ed a8 bd eb 9e bb bd f1 58 55 bd
       -0.05956024 -0.08248333 -0.091611706 -0.052086774
0000e0 96 4c 54 bd 18 c6 d9 3c d0 b7 43 3d e2 94 97 bd
       -0.05183085 0.026583716 0.04778272 -0.07401444
0000f0 b2 01 0f 3b dc d8 e6 bd 94 eb 1f bd 79 ce 12 bd
       0.002182108 -0.112718314 -0.039043024 -0.03584144
000100 a5 a9 58 3d 58 3e 85 bc a9 3f a1 bd e8 76 0a 3c
       0.05289616 -0.01626508 -0.0787347 0.008451201
000110 18 24 af 3d 0d f7 d4 bd 3f 39 13 bd 59 77 49 3d
       0.08551806 -0.10398684 -0.035943266 0.049186084
000120 23 d2 9c 3d 06 d4 d7 3c be 6d 85 bd ec 8c 8e 3c
       0.07657268 0.026346218 -0.06515072 0.017401181
000130 16 cd f5 bd b7 7e 79 bd 18 54 14 bc d2 e0 71 3d
       -0.12002008 -0.06091186 -0.009053253 0.059052296
000140 49 c5 a1 3c 41 3b a3 3c 73 70 3f bc 69 90 88 bd
       0.019747393 0.019925715 -0.011684525 -0.06668169
000150 c5 dd 0f 3d 0b b4 9a bc 5d fb c1 bb 8e cc 70 bd
       0.035123605 -0.01888468 -0.0059198574 -0.05878883
000160 0f ec 8b 3d e2 16 fd 3c 9e c5 37 3d 0b e5 87 3d
       0.06832134 0.0308947 0.044866197 0.06635483
000170 55 3f 80 3d fb b5 af 3c c5 35 74 bc 6f c9 c8 bd
       0.062620796 0.02144908 -0.014905398 -0.098040454
000180 93 f9 01 bd 50 e5 d2 3b 85 3c ce 3d 50 f0 b5 bd
       -0.031732153 0.0064360276 0.10070137 -0.088837266
000190 9f 5f 57 3d a3 01 ba 3d ed 12 01 3c 7f ad 43 3c
       0.052581426 0.090823434 0.007878047 0.01194322
0001a0 ec ea 18 bd 94 44 ca bd 98 5c 3e bd 48 64 1f 3d
       -0.037333414 -0.098763615 -0.046475023 0.038913995
0001b0 23 54 77 bd 13 3b b8 bd e1 d2 b1 3c 64 b3 6d bc
       -0.060382973 -0.089956425 0.021707 -0.014508102
0001c0 c5 32 80 bd 5d f7 5f 3d d3 c1 22 3d fa e3 8e 3c
       -0.062596835 0.054679263 0.039735626 0.017442692
0001d0 3a c0 50 3c fe 92 9c 3c 1c 09 1a bd 18 9b 99 3d
       0.012741143 0.01911306 -0.037606344 0.07500285
0001e0 4e 85 2a bd 33 58 4d bd 01 31 ff bc 02 2f 5d bd
       -0.041631036 -0.05013294 -0.031151297 -0.05399991
0001f0 b3 a6 56 3d 48 3c c5 3d c5 3c ac 3d db 9d 9e bd
       0.05240507 0.09630638 0.08410028 -0.07744952
000200 96 4d 63 bd 4d 89 83 3d 91 21 76 bd 42 48 9c bd
       -0.055493914 0.064226724 -0.060090605 -0.076309696
000210 82 4e a4 3d 0c b7 df 3c e6 7e 05 bd b6 c9 89 3d
       0.08022787 0.027308963 -0.032591723 0.067279264
000220 d9 36 d3 bd 03 fb 9b 3d 7d aa 34 bd c5 08 c2 bd
       -0.10313196 0.07616236 -0.044107903 -0.09474329
000230 c7 0f a3 bd 66 fd a2 3d 65 73 71 bd 08 db c9 3d
       -0.07961994 0.07958488 -0.05894794 0.0985623
000240 47 c1 6f 3d 68 f8 3f 3d a9 ed 83 3d 75 4e a4 bd
       0.058533933 0.046867758 0.064418145 -0.08022777
000250 57 f2 71 3d 6d dc 0d bd c1 14 69 bd 2e f2 9c bd
       0.059069004 -0.034634043 -0.056904558 -0.076633796
000260 3e c6 6e bd f5 b8 c5 bc c4 46 a1 bd ab 57 d9 3c
       -0.058294527 -0.024136046 -0.078748256 0.026531061
000270 b2 48 0e 3d f5 95 ae 3d 3b 47 c6 bd 4b fd 75 3b
       0.034737296 0.08524696 -0.09681555 0.0037535008
000280 0f 64 22 bd 9f bf d5 bd 9d 24 b4 bd 7e 71 99 bd
       -0.039646205 -0.104369394 -0.08796046 -0.0749235
000290 4b 9d 04 3c fe 14 60 3c 1c eb 9f bd a7 af c6 bd
       0.008094142 0.01367688 -0.078085154 -0.09701472
0002a0 56 e5 74 bd 1f 99 77 3d 63 74 9c 3d 29 52 21 3d
       -0.059789024 0.060448762 0.076393865 0.039384995
0002b0 18 35 9e 3d 5b 59 ae 3d af ae 9e 3d 33 6b a2 3d
       0.077249706 0.08513137 0.07748162 0.07930603
0002c0 5f fe 81 3d 22 37 59 bd e5 57 f6 bc 65 30 91 bd
       0.063473456 -0.053031094 -0.030071208 -0.07089309
0002d0 a4 7a f5 3c 3d f7 67 3d be e3 79 bd de 5a 5f bd
       0.029965706 0.05663227 -0.061008207 -0.054530017
0002e0 83 ce 72 bd d2 5e 0a bc bb 9c 44 3d 4d 75 98 bd
       -0.059278976 -0.0084454585 0.048001032 -0.07444248
0002f0 96 58 a0 bd fc 52 a4 3d c4 8c 9d 3d 9e cd 6f bc
       -0.078293964 0.080236405 0.076928645 -0.014636425
000300 82 22 6b 3d 79 26 d8 3c eb d0 25 bd fe 05 9e 3d
       0.057405956 0.026385533 -0.040482443 0.07715987
000310 42 1a 83 3d 2a b5 17 bc 62 e0 5f 3d 03 21 d0 bd
       0.06401493 -0.0092595015 0.054657348 -0.101625465
000320 08 c3 a8 bd 1d 9a aa bd cf 25 8c 3a 2d fc b9 bd
       -0.08240324 -0.08330176 0.001069242 -0.09081302
000330 7c 28 2c bc 2e 2a ad 3b fc 6d c3 bc c1 64 dd bc
       -0.010507699 0.005284569 -0.023856156 -0.027025582
000340 30 09 96 bd c1 82 22 bd aa 22 88 3d f9 bb 88 3c
       -0.07325971 -0.039675478 0.06647237 0.016691195
000350 55 cb 12 3d 11 0f c5 3d ce 5b ef 3b d0 05 bb bd
       0.035838444 0.09622014 0.007304645 -0.09131968
000360 d7 56 9c 3d 1c e0 6b bc 1a fc 0e bd 20 1a a3 3d
       0.07633751 -0.014396694 -0.03490839 0.07963967
000370 56 7e c7 bd 49 ff 54 3d 7d 18 87 bd d2 e1 bc 3d
       -0.097408935 0.05200127 -0.06596468 0.09222759
000380 1c 8f 4f bd 3f 78 18 3d 18 7f 1e 3c 37 96 8c bd
       -0.05067359 0.03722405 0.009673856 -0.06864589
000390 03 80 97 bd 50 e8 65 3d da 97 9a 3d dc 68 1b 3d
       -0.07397463 0.056129754 0.07548495 0.0379418
0003a0 4d f8 69 3c e6 94 b3 bd ff 85 c2 bd e3 6f 85 bd
       0.014280391 -0.087686345 -0.09498214 -0.06515481
0003b0 2f f2 9c 3d 4c 94 45 bd 06 6f bf 3d 23 e2 67 3d
       0.0766338 -0.04823713 0.09347348 0.056612145
0003c0 62 2b e3 3c 7d 07 11 3d c6 1a 6f bd b1 0d e1 3c
       0.027730647 0.035407532 -0.058375143 0.027472349
0003d0 b5 c8 ff bc 1f 17 95 3c d2 27 84 3d 5c 91 d9 3c
       -0.031223634 0.018199502 0.064529076 0.02655857
0003e0 15 08 86 3d 70 b7 b1 ba 88 e2 64 39 5f d5 31 bd
       0.0654451 -0.0013558697 0.00021828164 -0.043416377
0003f0 fe f1 66 3d 3e de 3a 3d 46 f5 d6 bc 90 24 9f bd
       0.056383125 0.045622103 -0.026240002 -0.077706456

model/conv2d_3/Conv2D;zero_dce/StatefulPartitionedCall/StatefulPartitionedCall/model/conv2d_3/Conv2D f4 [32, 3, 3, 32]
000000 b4 8d 6b 3d 14 30 9d bc 64 41 1c bd 77 49 2c 3d
       0.057508186 -0.019187964 -0.0381483 0.04206225
000010 0d 8e b8 bc fd fd 87 3d 09 0a a4 3d 65 31 94 bd
       -0.022528673 0.06640241 0.080097266 -0.07235984
000020 70 ad be bd b4 15 04 3c 57 17 82 bd 51 c6 ee 3c
       -0.09310424 0.008061815 -0.06352108 0.029147299
000030 dd 4d 51 bc 07 32 84 3d 0a f1 4e 3d 2e 8b 33 bd
       -0.012774912 0.064548545 0.05052284 -0.043833904
000040 e4 d7 f2 bb 46 ac c1 3d 3d b2 a2 3c ac a0 e8 bd
       -0.00741099 0.09456687 0.019860381 -0.11358771
000050 30 db ae bd 46 87 22 3d a6 ba a1 3d cb 62 b3 bc
       -0.085379004 0.039679788 0.078969285 -0.021897694
000060 47 42 80 3c a8 ab 10 bd 46 3d 11 bd d3 fc 01 3d
       0.015656604 -0.035319954 -0.035458826 0.031735253
000070 2d fa 7f 3d b8 5b 55 bd bf c8 82 bd 83 42 ce 3d
       0.062494446 -0.052089423 -0.063859455 0.1007128
000080 39 e8 9f 3d 0a c1 2a 3d 50 0f b1 bd cc 61 c6 bd
       0.07807965 0.041688003 -0.08645499 -0.09686622
000090 13 02 68 bd 38 87 a3 3c 6b 68 7c bd 21 be aa 3d
       -0.056642603 0.019961938 -0.06162302 0.083370455
0000a0 65 60 30 bd ec 46 91 bd f7 b5 13 ba 05 4b 65 3c
       -0.04306068 -0.070936054 -0.000563472 0.013994937
0000b0 a4 05 cb bc ef 06 c0 bd 54 70 86 bd 4e f0 2e 3c
       -0.024782963 -0.093763225 -0.06564394 0.01067741
0000c0 35 f5 9a 3c e0 85 8f 3d f7 b4 2a 3e b3 60 3a 3d
       0.018915752 0.070079565 0.16670595 0.045502376
0000d0 b0 ed 8d 3d 2a 0c 2f bd 94 4c 01 3c 66 49 fb bc
       0.06930101 -0.04273621 0.007891793 -0.030674648
0000e0 25 8a 9c 3d a1 d8 10 bd b6 3d 8c bb 69 16 da 3d
       0.076435365 -0.035362843 -0.0042798175 0.10648806
0000f0 3e bf d1 3d cf c4 69 bc 43 2a 49 bd 85 61 ba 3d
       0.10241555 -0.014268114 -0.04911257 0.091006316
000100 dc a4 4d 3d 1a 69 8d bd 9e 4c 3a bd 91 92 c1 bd
       0.05020605 -0.06904812 -0.045483224 -0.094517834
000110 2c cf b0 3c 9c 2a ca bd 39 e1 86 3d 34 85 3b 3c
       0.021583162 -0.09871408 0.065859266 0.011445332
000120 da 07 ce bd c7 92 7e 3c bc ff 97 bd da 53 a1 3c
       -0.10060091 0.015537924 -0.07421824 0.019693304
000130 54 04 6b 3d d5 43 9c bc 1b d8 ad bc f7 4c ad 39
       0.057377174 -0.019075314 -0.021221211 0.00033054475
000140 24 7d a7 3d eb 0e e3 3c 39 fb ca 3d 8d 32 54 3d
       0.081781656 0.027717074 0.09911198 0.05180602
000150 04 e0 ae 3d 56 63 65 3d 25 89 17 3d d2 af 8c bd
       0.08538821 0.056002937 0.036996026 -0.068694726
000160 b4 93 c9 3b 9f f1 bd 3d 96 08 5b bb 75 f7 ca bd
       0.006151641 0.09274601 -0.0033421866 -0.0991048
000170 1e 78 a6 bd aa 0d 7e bd 4c 4f aa 3d 38 3c 39 bd
       -0.08128379 -0.06202475 0.08315906 -0.045223445
000180 1a 6f 82 3d 84 e8 23 3d 56 18 04 bc 12 4c c0 bd
       0.06368847 0.040016666 -0.008062443 -0.09389509
000190 3a 55 8c bd 3d 37 06 3c b5 9a 29 bc 9e c6 39 3d
       -0.06852193 0.008191881 -0.010351826 0.04535543
0001a0 5c e8 93 3d c5 13 7f bc a6 27 bc bb 23 c1 76 bd
       0.072220534 -0.015568678 -0.005742031 -0.060242783
0001b0 b9 1e 71 3d 00 8a b9 3d 66 36 99 bd 2c 7d 4a bc
       0.05886719 0.090595245 -0.07481079 -0.012358945
0001c0 c8 f3 bb 3d a8 33 cf 3d 24 e2 c2 3d 71 58 02 3e
       0.09177357 0.101172745 0.09515789 0.1272905
0001d0 fd 2d 72 3d ed 02 b6 bc df a4 76 3d f5 a9 b4 3d
       0.05912589 -0.022218192 0.060215827 0.08821479
0001e0 ff 79 a0 3c 8c 2d 79 bd 63 69 a3 3d 11 d6 65 bd
       0.019589422 -0.060834453 0.07979085 -0.056112353
0001f0 a4 30 a8 bd bb 88 39 3d 7d 0e 3b 3d 9e a8 17 3d
       -0.082124025 0.045296412 0.045668114 0.03702604
000200 db df ee 3d 69 6f ef 3c f0 a4 b0 3d d9 cd 1e bd
       0.11663791 0.02922793 0.08625209 -0.03877053
000210 70 6f fd 3b 6f 1b 71 3d 3d ea d1 bd d9 a5 de bd
       0.0077342317 0.058864053 -0.102497555 -0.10871477
000220 be 62 22 3d 07 59 fb bb c0 3e b1 bc 8c 80 9c bc
       0.03964495 -0.007670525 -0.021636367 -0.019104265
000230 21 51 dd 3d c6 5d 9b 3d 14 98 1e bd 37 44 a1 bd
       0.1080649 0.07586245 -0.03871925 -0.07874339
000240 e6 65 14 bd 05 7f ae bd e1 53 46 bc 9c 7c 3d bd
       -0.03622999 -0.08520321 -0.012104959 -0.046261415
000250 18 53 a1 bd 48 5b 30 bc f5 3a c5 3d a5 b6 9d 3d
       -0.07877177 -0.010763951 0.09630386 0.07700852
000260 4a 42 99 3d ea 94 b9 bd 2b e8 42 3d c1 af 83 bb
       0.07483347 -0.09061606 0.047584694 -0.004018754
000270 42 f1 3b 3d 55 24 4a bd 78 18 9f 3d 3e 09 9c 3c
       0.04588438 -0.049351055 0.07768339 0.019047376
000280 9b c4 bc 3c 47 a3 c7 bd a4 f3 b2 3d 09 cb 8e bd
       0.023042968 -0.097479396 0.08737877 -0.0697232
000290 7e 8f cb 3d 37 92 8a 3c 9d 32 37 37 ba 2f ca bd
       0.09939478 0.016915424 1.0919434e-05 -0.09872384
0002a0 32 66 83 3d d3 0c 3d 3d 0a 84 93 3d a3 36 6e 3c
       0.064159766 0.04615481 0.07202919 0.014539394
0002b0 71 8c ed 3c 4d c9 86 bc 6b 33 63 3d fb 7a 43 3d
       0.028997632 -0.01645341 0.055468958 0.047724705
0002c0 98 8b 26 bd 14 85 f0 bb 82 ff 22 bc e6 c3 a5 bd
       -0.04066047 -0.007340083 -0.009948613 -0.08094005
0002d0 bc 3a 63 3d 9c 02 82 3d 0d 9d 8a bd 86 a9 24 3d
       0.055475935 0.06348154 -0.06768236 0.040200733
0002e0 d2 3c 19 bd 1c 72 63 3d 87 07 6b 3d 52 f4 40 3d
       -0.03741152 0.055528745 0.057380226 0.047108002
0002f0 4c 6f 1c bd 3b 1c 85 3d bf dd 82 3d e7 cb 3f bd
       -0.03819208 0.06499525 0.06389951 -0.046825316
000300 55 bf 54 bd bd 58 22 bd 9e c1 9c bd 96 be 90 3d
       -0.05194028 -0.03963541 -0.07654117 0.070676014
000310 d1 de b2 3d 8a 8c 9f bd fd 01 bf bd 0c b7 a2 3d
       0.08733905 -0.077904776 -0.09326551 0.0794507
000320 6a 96 44 3d 88 63 79 3b cd 11 b1 3d 11 c5 fa 3b
       0.04799501 0.003805371 0.08645973 0.0076528867
000330 ca 38 16 3d b3 91 2b bc 53 87 89 bd fd 98 4f bc
       0.036675252 -0.010471749 -0.06715264 -0.012670753
000340 4e 09 70 bd 83 eb b7 3b 1d fc 98 bd 80 24 15 3d
       -0.058602624 0.005612792 -0.07469962 0.036411762
000350 d1 1b b8 bd a0 76 0f bd c3 b9 be bd 3f 5c dc 3c
       -0.089896806 -0.03502524 -0.09312775 0.026899455
000360 1c b8 87 3d 57 8e bc 3d 88 82 1b bd 54 d9 06 3e
       0.06626913 0.09206837 -0.03796628 0.13168842
000370 e0 58 e2 bc 51 43 63 3d 8e e1 87 3d 6d 19 85 bd
       -0.02763027 0.05548412 0.06634818 -0.0649899
000380 36 dd 7f bd ad 38 99 bd 68 9a 90 bd 1b 8e be 3d
       -0.062466823 -0.07481513 -0.07060701 0.09304448
000390 7e cb ac 3d c7 a4 15 3d 75 68 2d bd 0b 6c a1 bc
       0.084372506 0.036534097 -0.042335946 -0.01970484
0003a0 19 ea d9 3b 84 41 7c 3d 4e 9b 46 bb 42 b5 d2 3d
       0.006650221 0.061585918 -0.003030497 0.102884784
0003b0 38 3b f7 3d cd 69 c5 3d 00 fe 4b bd 5c df 2e bd
       0.12071842 0.096393205 -0.04980278 -0.04269348
0003c0 66 62 78 bd b3 c4 40 3d c9 65 80 3d fa b7 1e 3d
       -0.060640715 0.047062587 0.06269414 0.038749672
0003d0 bf fe 0f 3b e4 11 44 bd 36 a8 96 3d ef 29 ab 3d
       0.002197191 -0.047868624 0.073563024 0.083576076
0003e0 d3 58 5c 3d 59 f2 3f 3d 7d a6 bc 3d 8d 86 1f 3d
       0.053795647 0.04686198 0.092114426 0.038946677
0003f0 2d 91 ac 3d 47 4a 9b bd 2a 99 12 bd 21 c8 68 bd
       0.084261276 -0.07582527 -0.0357906 -0.056831483

model/conv2d_4/Conv2D;zero_dce/StatefulPartitionedCall/StatefulPartitionedCall/model/conv2d_4/Conv2D f4 [32, 3, 3, 64]
000000 8d 70 83 bb 4d 0a 2f bd 30 b8 5a 3d 05 89 3f 3d
       -0.00401122 -0.042734433 0.05339831 0.04676153
000010 ac d8 db 3d cc bc de bc 33 1d 4b 3d 60 2d 76 3c
       0.10734686 -0.027189635 0.049588393 0.015025467
000020 ed d5 96 3d 5f b6 72 bc 3c 28 9d bd c2 a9 8d bd
       0.07365022 -0.0148139885 -0.0767369 -0.06917144
000030 48 04 89 3d b7 79 d7 3c 52 54 03 bd 7e 0d 92 3c
       0.0669027 0.026303155 -0.032062836 0.0178287
000040 67 20 46 bd d7 9b 88 3d a4 f6 2b 3d 1b b2 84 bd
       -0.048370745 0.06670349 0.04198326 -0.064792834
000050 bf ec 9c 3d 04 2f 28 3c 16 6a 8c 3d 03 09 49 3d
       0.07662343 0.010265116 0.06856172 0.04908086
000060 11 30 16 bd 79 5d 97 bc be fe 7d bc c6 17 94 bc
       -0.036666933 -0.018477188 -0.01550263 -0.018077742
000070 9b dd 90 bb 58 1e 42 bd 9a 10 7f bb 4d ec b1 3d
       -0.0044209487 -0.04739222 -0.0038919807 0.08687649
000080 f3 b0 0f 3b 3f 7e 33 3d 40 34 28 bd a2 c4 c1 3c
       0.0021925538 0.04382157 -0.041065454 0.023653332
000090 19 3d ab bd 64 d0 92 3b 21 24 3b 3b af 81 8a 3d
       -0.08361263 0.0044804085 0.002855547 0.067630164
0000a0 3d d8 e0 3c 48 fd 99 bd 5f 49 c4 bd c1 76 2d bd
       0.02744686 -0.07519013 -0.09584307 -0.04234958
0000b0 d6 fe 2d 3c e5 9e 9c 3d c7 43 01 bd c2 86 20 bd
       0.01061984 0.07647494 -0.031558778 -0.039191015
0000c0 31 0d 84 bd 95 69 76 3d 5b a0 89 3c b9 8c 75 3d
       -0.064478286 0.060159285 0.016800096 0.059948657
0000d0 9f e4 bf 3d 70 4e db 3c 3e a9 d0 bc 2c 47 49 bd
       0.09369778 0.0267708 -0.025471326 -0.04914014
0000e0 7e ec 6e 3c 6d 1f 26 3d c7 e3 24 bd 52 f7 c0 bc
       0.014582751 0.040557314 -0.040256288 -0.023555432
0000f0 96 e4 15 bc 8f c8 97 3d e0 68 0f bd 5a 54 a3 bc
       -0.009148737 0.074113004 -0.035012126 -0.019937683
000100 ad a3 7b 3d 34 3a 05 bd cf c8 93 3d 14 ac 68 3d
       0.06143539 -0.03252621 0.072160356 0.05680473
000110 2e 26 86 bc 17 f3 bd bc db f1 a2 bb 92 87 ff bc
       -0.016375627 -0.023187203 -0.004972679 -0.031192575
000120 5f f9 93 bd 66 b8 2c 3d 9e 7e a1 3d ea 8c a7 bd
       -0.07225298 0.042168044 0.078854784 -0.08181174
000130 5f 54 57 3d 61 dc 0d bc 2c 52 78 bd f5 59 67 3d
       0.052570697 -0.008658499 -0.06062524 0.056482274
000140 57 24 ba 3d 19 ce b1 3d 8c 65 b0 bc 49 9e 17 3c
       0.090889625 0.08681888 -0.021532796 0.009254047
000150 f4 29 5e bd 3c dd 9b bd 55 93 03 3d c4 8b 5a 3d
       -0.05423923 -0.076105565 0.03212293 0.053355947
000160 73 ee 6b 3d 9a 9d a6 bd e2 ab 1c 3c c3 a2 7c bd
       0.05760045 -0.08135529 0.009562464 -0.06167866
000170 58 d6 8a 3b 46 1d db 3a 27 07 91 3d 7d 87 81 bd
       0.0042369775 0.0016717098 0.07081442 -0.063246705
000180 fa 3b a5 bd 8a ca 10 bd 62 21 6a 3d 3b e7 a5 3d
       -0.0806808 -0.035349406 0.057160743 0.08100744
000190 5f 85 b2 bd 35 7b 97 3d d8 3e 43 bd 62 f5 a8 3d
       -0.08716845 0.07396547 -0.047667354 0.08249928
0001a0 7d ff ad bd e2 f4 3a 3b f7 b5 0e 3d fc 7a 2f bc
       -0.08495996 0.002852731 0.034841504 -0.010710474
0001b0 9d bc 12 3d c5 25 06 bd 86 26 31 3d db 7c 28 ba
       0.035824407 -0.032750864 0.04324963 -0.00064272963
0001c0 04 77 bc 3c ae 7d 4b 3d 39 e3 a9 bc 58 a7 02 3d
       0.02300597 0.049680404 -0.020738231 0.031897873
0001d0 29 51 52 3d 18 0e 5d 3d 77 f9 31 3d 40 a1 c7 bc
       0.05134693 0.05396852 0.0434508 -0.024368882
0001e0 25 ae 26 bd 4f b3 74 3d 3f 35 e3 3b 1b bf 3b 3d
       -0.04069342 0.059741315 0.0069338377 0.04583655
0001f0 27 44 93 3d e7 4b 52 bd 13 47 38 bd ea 67 8e 3d
       0.071907334 -0.051341917 -0.044989657 0.06953414
000200 65 f5 43 3d 4b 5f a9 bd 87 7c 54 3d 61 9d 59 3d
       0.04784145 -0.08270129 0.05187657 0.053128604
000210 0c d2 32 3d de 80 0b 3d b6 9d 53 3c d8 d7 83 3d
       0.043657348 0.034058444 0.012916019 0.06437653
000220 26 bb d9 bc 27 4d 03 3c 2f 86 0e bd 44 e0 0a 3c
       -0.026578497 0.008014 -0.034795936 0.008476321
000230 bf 81 2d 3d e3 94 68 bd ae be f8 ba 48 11 0b bd
       0.042360064 -0.056782614 -0.0018977725 -0.033952028
000240 75 d4 bc bd e4 7c 59 3d d8 0e 56 3d 33 66 47 bd
       -0.092202105 0.05309762 0.05226025 -0.04868145
000250 84 52 8a 3d 47 d9 85 bd 6a e2 ae bd 7e 98 ee bc
       0.0675402 -0.06535583 -0.08539279 -0.029125448
000260 2e a0 a4 bd 56 4f 54 bb 76 f6 fa bc d7 59 a3 bc
       -0.08038364 -0.003239592 -0.0306351 -0.0199403
000270 41 a8 be 3d 6c 9a 75 3c a2 76 6a bd 9a 33 b3 3c
       0.09309436 0.01499043 -0.057242043 0.021875191
000280 46 2a 97 bd 1b 62 67 3d a9 ba f7 bc 06 93 f1 3c
       -0.0738111 0.056490045 -0.030240374 0.029489052
000290 27 0b f9 3c 4e 0d 84 3d 6d b0 88 3d e8 b6 08 bd
       0.030400826 0.0644785 0.066742755 -0.033377558
0002a0 d1 66 00 3c 90 6d 44 3d 76 71 2e bd 4c 9b b6 3d
       0.007837013 0.04795605 -0.042588674 0.08916339
0002b0 90 c1 cf bd aa ee 15 3d 98 31 45 bd d7 f8 25 bd
       -0.10144341 0.03660456 -0.048143 -0.040520515
0002c0 0d 8a 0c 3e 3f 29 ce 3c ec 06 c6 3d db 6d ca bc
       0.13724537 0.025166152 0.09669289 -0.024710586
0002d0 a8 bf 99 bd 8b ab f0 bc 2d 1e 54 bb 6b bd 01 3d
       -0.07507259 -0.029378673 -0.003236662 0.031674784
0002e0 3a 0f 97 bc f2 13 06 3d 56 2d 85 3d 45 0f 11 bd
       -0.018439878 0.032733865 0.06502788 -0.035414953
0002f0 4d c2 5f bd 19 20 03 bd c9 a5 4f bd 9e d6 10 bc
       -0.05462866 -0.032013033 -0.050695214 -0.008840231
000300 f4 82 60 3d 12 8b a6 3d 90 f9 93 bd d2 f0 97 bd
       0.054812387 0.08131994 -0.07225335 -0.0741898
000310 29 bf 4e bd aa 44 41 3d d5 1a 80 bd 16 93 17 bd
       -0.050475273 0.047184624 -0.06255118 -0.037005506
000320 38 6a 9d 3d 92 ad 02 bd 6b f8 c4 bd 4d f4 ee bc
       0.07686275 -0.03190381 -0.096176945 -0.029169226
000330 5e d7 ef 3c aa af 88 3d 1b 3e a3 3d 04 04 05 bd
       0.0292775 0.0667413 0.0797083 -0.032474533
000340 cd 8b ff bb 3d 5a b2 3d fc 92 0b 3d 5a 38 b3 bc
       -0.007798648 0.08708618 0.034075722 -0.021877456
000350 dc ab 91 3d 56 03 14 3d 7b af 8a 3c 3b e4 4e bd
       0.07112858 0.036135994 0.016929379 -0.050510626
000360 46 0a a5 3d 9d 27 a0 3d 8c 70 4c 3d db 09 82 bb
       0.080586 0.07820056 0.04991202 -0.00396846
000370 fc 5d 55 3d e5 7e e5 3b 7d 5b 9b 3c 76 63 0e bd
       0.052091584 0.0070036524 0.018964523 -0.034762822
000380 28 26 11 bd a1 29 b8 3b 92 da aa bd e1 a7 19 bd
       -0.03543678 0.005620197 -0.0834247 -0.037513617
000390 8e 24 70 3c fa 05 97 bd 4f f0 a4 3b fc d2 c4 3c
       0.014657153 -0.07374187 0.00503353 0.024026386
0003a0 0b 9d 0e bb d2 77 9b 3b d5 3c c2 3c 76 f5 d1 3c
       -0.0021761085 0.0047445083 0.023710648 0.02562974
0003b0 77 f8 65 bc 59 ed 1a bd 21 bb eb bc 23 72 a0 3d
       -0.014036289 -0.03782401 -0.028775753 0.0783427
0003c0 d4 e3 74 bd 27 79 f5 bc 9d 9e a0 3d ba a8 4c bd
       -0.059787586 -0.029964997 0.07842753 -0.049965598
0003d0 c6 a7 82 3c 90 9a 75 bd 14 b3 09 bc 18 a4 7c bd
       0.015949141 -0.059961855 -0.008404512 -0.06167993
0003e0 40 20 88 bd b8 a2 3d 3d d9 d9 13 bd b5 05 2a bd
       -0.06646776 0.04629776 -0.036096428 -0.04150935
0003f0 6f 3e 6b bd 48 6f 47 3d 0a 69 9b bd bd 9a dc bc
       -0.05743259 0.04869011 -0.07588394 -0.026929254

model/conv2d_5/Conv2D;zero_dce/StatefulPartitionedCall/StatefulPartitionedCall/model/conv2d_5/Conv2D f4 [32, 3, 3, 64]
000000 9d b8 8f bd d8 22 de 3c c8 86 a0 3d ac 60 98 bd
       -0.07017634 0.027116224 0.078382075 -0.07440314
000010 1e 87 88 3c a4 2e 85 ba 05 32 8f bc fd d8 6b bd
       0.016665991 -0.0010160995 -0.017479906 -0.057579983
000020 40 9a a5 3c 10 85 80 bc b9 ec 45 bd e8 f1 90 bc
       0.020215154 -0.01568845 -0.04832146 -0.017693475
000030 de ac 47 bc 0e 19 56 bd fe af 5c bc 5d 71 ad bd
       -0.012187211 -0.052269988 -0.013469694 -0.08468888
000040 75 9d d0 bd 3a 19 8a bd 1c d6 2b bc b7 f0 5a 3d
       -0.101862825 -0.06743093 -0.010488059 0.05345222
000050 0c 32 b1 bd 6e bb 16 bd 5b 33 86 3c 5c 31 b6 3c
       -0.08652124 -0.03679984 0.01638191 0.022240333
000060 61 77 62 bd 1e e9 b2 bd c6 2b 4c 3c 74 ec 64 bd
       -0.05528963 -0.0873587 0.012461608 -0.05588956
000070 36 62 86 3c ae 3c 23 bd d3 24 b5 bd 1c c3 28 3d
       0.016404252 -0.03985279 -0.08844914 0.041201696
000080 35 71 16 3d 6c ee 50 bd 6e ac dd bc 6d bd 8c bd
       0.036729056 -0.051008627 -0.02705976 -0.068720676
000090 9a cf 24 3d 0b 7c fc 3c 51 ca 61 3d c0 54 59 3c
       0.040237047 0.030820867 0.055124585 0.013264835
0000a0 af ff 4d 3d 16 2d 2a bd 92 2a a3 bc 37 da 04 3d
       0.050292667 -0.041546904 -0.01991776 0.03243467
0000b0 df da 01 bc 66 ab 01 3d 08 c8 3f 3d ed 16 f5 3c
       -0.007925718 0.0316576 0.046821624 0.029918158
0000c0 44 c4 1a bd c5 3d 8a 3d 88 1b 73 3d 44 6e 04 bd
       -0.03778483 0.06750063 0.059352428 -0.03233172
0000d0 dc ea 57 3c ae a7 a2 3d 37 8b 4b 3c f2 46 27 bd
       0.013178553 0.079421386 0.012423328 -0.040839143
0000e0 6d b6 a1 3d 13 ee 5e 3d 4b 5a 5a 3c ea b5 36 3d
       0.07896123 0.054426264 0.013327192 0.04460708
0000f0 9a 86 7d 3d e0 89 20 3d 07 87 a8 3a dd ee 21 3d
       0.061895944 0.039193988 0.0012857624 0.03953444
000100 d2 5c a5 bd db 5d d8 bc 62 11 b7 3b 67 dc e8 bc
       -0.08074345 -0.026411941 0.005586789 -0.028425409
000110 7d 66 ce ba 65 4f 97 3c 2e 15 8e bd c1 da 74 3d
       -0.0015747097 0.018470475 -0.069376335 0.059778932
000120 df 79 88 3c 31 b4 15 3d 67 5b 04 3d 8a 24 e8 3d
       0.016659675 0.036548797 0.03231373 0.11335094
000130 e6 bb 2e bd 13 a1 c6 3d fe 32 09 bc a7 95 a5 bb
       -0.042659663 0.09698691 -0.008373974 -0.0050532403
000140 3f cb d8 3d aa 69 7c 3d c6 86 80 3c 25 cd a1 bc
       0.10585641 0.061624207 0.015689265 -0.01975114
000150 ec 52 8d bd 59 25 8a bb 94 85 ed 3b db 0b 11 3e
       -0.06900582 -0.004215878 0.00724859 0.14164679
000160 03 87 b5 ba f4 86 2a bd ed 9a 6c bd 7c e4 52 3c
       -0.0013849441 -0.041632608 -0.057764936 0.012871858
000170 bd 04 ab bd fd bf 1d bb e3 0c 19 3d c4 43 a7 3d
       -0.08350513 -0.0024070733 0.037365805 0.08167222
000180 aa f1 86 3d 6d ba 9b 3c 37 4d 2d ba 64 1b a4 3d
       0.065890625 0.019009793 -0.0006610932 0.08013037
000190 dd 07 8a bc 43 0b e5 bb 87 96 3f 3d 45 37 ea bc
       -0.016849453 -0.006989868 0.046774413 -0.028590808
0001a0 de d8 68 3d e8 04 09 3d ae 28 41 bc 89 34 57 3c
       0.056847446 0.033451945 -0.011789484 0.013135084
0001b0 2b 7d 15 bb 17 ea 19 3d 5d fb a6 bd 44 e7 7e 3d
       -0.0022810202 0.03757676 -0.081534125 0.06223227
0001c0 13 87 3d 3d f1 60 4a bc 82 b9 3e bd 40 f3 e3 3d
       0.046271395 -0.012352214 -0.046563633 0.11130381
0001d0 2a a9 84 3d 9b e4 57 bd 10 f7 92 3d c2 05 6e 3d
       0.06477578 -0.05270825 0.0717603 0.05811096
0001e0 e8 f6 91 3c c6 de 9b 3d 44 97 c9 3c a7 3b 37 bd
       0.01781793 0.0761085 0.024608262 -0.044734623
0001f0 e3 a2 9c bc 59 fe a9 bd 26 1d 82 bd 62 1e 6a bd
       -0.01912064 -0.08300466 -0.06353216 -0.05715788
000200 45 37 80 bd b8 4d 94 3d e6 5c f1 3d 94 a7 32 bd
       -0.06260542 0.07241386 0.11785297 -0.043616846
000210 00 53 88 bb 8d 59 66 bc a6 7e b4 bc 42 08 f3 3b
       -0.004160285 -0.0140594365 -0.022033047 0.007416756
000220 a5 a6 45 bd 63 46 be bc 78 b3 93 bd c4 0b c8 3b
       -0.048254628 -0.023226922 -0.07211965 0.006104918
000230 63 28 89 3c f0 2d 1a bd 2e c6 9a 3d 7f 99 ca 3c
       0.01674289 -0.037641466 0.07557331 0.024731396
000240 ea c5 98 3d c3 d4 b8 bb f8 d0 48 bd 1a b8 bd bd
       0.07459624 -0.0056405975 -0.049027413 -0.0926363
000250 fc fe 28 bd 3f 28 8a bd f3 53 ac bc 86 18 e9 3d
       -0.041258797 -0.067459576 -0.021036124 0.113816306
000260 52 85 9a 3d 65 2a 18 3d d2 41 20 bc 5f 73 8e 3b
       0.0754496 0.037149806 -0.009781318 0.0043472494
000270 27 92 a4 3d 85 6c 92 3d 3d 4d 9b 3c 5c 79 7e bd
       0.08035689 0.07149605 0.018957729 -0.062127456
000280 30 98 92 bc 5c f2 3a bd 3b aa 77 3d ec bf 9a bc
       -0.017894834 -0.04564129 0.06046508 -0.018890344
000290 96 9f a3 bd 95 61 8d bd 3c f9 64 bd 90 0c 9e 3b
       -0.07989423 -0.06903378 -0.05590175 0.004823275
0002a0 10 b7 86 3d 76 b9 32 bc 7a 95 b0 3c 71 d5 53 bd
       0.06577885 -0.010908475 0.021555651 -0.051717225
0002b0 cf 53 bf 3c 6f 70 81 bd 2c bf d0 3c 00 56 71 bd
       0.023355393 -0.06320273 0.025481783 -0.058919907
0002c0 8b 07 41 3d 07 c0 3d bd 25 40 1d bd 30 0f 46 3d
       0.047126334 -0.04632571 -0.03839125 0.048354328
0002d0 c6 bb 47 bb 5d 1e 51 bc 5b 4e 7e 3d 4a f1 b9 3c
       -0.0030476912 -0.012763587 0.062086444 0.022698063
0002e0 11 5a af 3d 79 bc 54 3d 47 4b 22 3d ed ae 4a bc
       0.08562101 0.051937554 0.03962257 -0.012370807
0002f0 bb 00 0b bc ed e0 a6 3c 2a e3 86 3c d8 80 3b 3d
       -0.008484061 0.020370925 0.016465742 0.04577717
000300 db 45 9b 3b 25 62 db bc 23 87 d2 3d 96 4f 2e 3d
       0.004738552 -0.026780197 0.102796815 0.042556368
000310 1d 17 71 3c 57 6d 82 3c 9f 3a 9d bd a0 fe 1c bd
       0.014714983 0.015921278 -0.07677197 -0.038328767
000320 d8 dd 80 3c 53 6f 47 bd a6 68 a0 bc 12 3a 80 3d
       0.015730783 -0.04869015 -0.01958115 0.06261076
000330 68 82 09 3d 41 ba ae 3d 1f 65 01 3b 2b b2 56 bd
       0.03357163 0.08531619 0.001974411 -0.052416008
000340 0c c7 df bc 9e 71 9b 3d 8b 78 8a bd 6a e2 54 3d
       -0.027316593 0.0759003 -0.06761273 0.051973738
000350 5c ff 9e bd 90 6a 1d 3c c6 bd ce 3c ba ee dd bb
       -0.0776355 0.009607926 0.025236975 -0.006772843
000360 30 7e bd 3d b7 3f b1 3d 87 56 81 bd db 69 e4 3b
       0.09252584 0.08654731 -0.06315332 0.006970627
000370 4d a4 e7 3c df bd 07 3c a0 4c 7d 3d 8f fd 2a 3c
       0.028276587 0.008285015 0.061840653 0.01043643
000380 c2 a6 8a 3a 58 26 35 3d 46 3a fa bc e7 b8 9c bc
       0.0010578262 0.04422602 -0.030545365 -0.019131137
000390 73 24 f1 3c fc bd a9 3d 22 98 d6 bc 9a c0 43 3d
       0.029436326 0.0828819 -0.02619559 0.0477911
0003a0 fd 6c bc bc c6 e3 3d bd 1f f5 67 bd d4 86 60 3d
       -0.023001188 -0.0463598 -0.05663025 0.054816082
0003b0 c2 0d d9 bc 17 47 f7 3b 84 95 b7 bc a0 d7 8a bd
       -0.026495818 0.0075463164 -0.022410162 -0.067794085
0003c0 eb 82 71 bd e5 6c cf 3c 74 be 23 bd 4d 99 fa bc
       -0.058962744 0.02532048 -0.039976552 -0.030590678
0003d0 1e 0b a0 3d e4 6c 5d bd bf 5c 95 3b 88 c5 65 bd
       0.078146204 -0.054058924 0.0045581753 -0.056096584
0003e0 ec 47 f6 3c 90 24 4d bd eb 56 a7 3d bd 62 aa 3d
       0.030063592 -0.050083697 0.08170875 0.08319614
0003f0 8c 87 17 3d 71 fe 63 bc 3a 69 74 bd 45 da 21 3d
       0.036994502 -0.013915644 -0.059670664 0.0395148
